character Generator.pth (torch, 21952 bytes, 6 tensors)

weight_ih_l0 f4 [64, 41]
00000000: 2287 41be 617d 0a3f f5fa a13f 8bfb 843f
00000010: 392c 2a3f c0d7 c4be bbd1 0140 9bca d7bc
00000020: 5651 233f 9c91 d2be 16d5 b43f 01b4 803f
00000030: 794b 9e3f c210 613f 0115 263f e416 d73f
00000040: 2333 8f3f 92d2 be3f 8307 cb3f ea8f 1d3f
00000050: 2288 4e3f 271a 943f 5e2d 8f3f d78b 833f
00000060: f11f ae3f fef2 5f3f 0054 b93e 6594 ee3e
00000070: 27bb 543f d564 02bf 9fa9 18be 40eb 713f
00000080: 8ae4 a33f de7b 7abe 9e88 d13c 5e6c 9e3f
00000090: 7b62 f73e 3f37 733f ae47 813e ae5c e83d
000000a0: fd1b fdbe aaa6 e83d a7ed 0e3f 9c1b c03f
000000b0: 755b c53f 107d 493f 363a 853f 5732 843f
000000c0: c4a4 393f c258 3fbd db2b 8e3f a1f6 523e
000000d0: f3db 983e 631b d23e d3f9 2dbd 648b 993e
000000e0: 8506 f33e af15 873f 957a eb3f 1052 853f
000000f0: 486a 0a3d c1d3 de3e 3796 eb3e 0360 423f
00000100: 7158 3a3f c14c 9d3e 71f4 a53f 6f34 4fbf
00000110: e040 203f b9b0 703f a088 35bf cb40 7d3f
00000120: e024 b93f 8bcc 813e 81b0 0bbf c3c6 d73f
00000130: 41a7 c83e 5d87 39be 2cf6 d5be 6bff 9a3f
00000140: 083e 343f ee0e 2a3f 4f71 053f afd5 c9be
00000150: 88e6 823e 44a3 323f 3d44 3b3f 8a42 303f
00000160: 2a6c e03e ff0e 633f e35a 303f 519c 183f
00000170: b298 fe3f ade9 783f 4c15 cd3e 0262 023f
00000180: 0b8f 1f3d 45fa a03f abe4 8f3f d46a cb3f
00000190: c103 113f 5fe4 cf3d 7ef0 543f 0d1e 693f
000001a0: b133 02be 2619 af3e c8a2 85be 3b77 9f3f
000001b0: cc30 ee3f 2a3e 1a3f 0ab7 323e 316d c83f
000001c0: c1a6 da3e 089c 723f 07ad 403f 897e cb3e
000001d0: 2720 1cbf 65ae 273f a7c9 b43f ce0e 353f
000001e0: 23e8 a53f 778d b13f edcf 763d 8b85 223f
000001f0: f29a 963f a3bf dd3d 1383 a53f 7041 3b3f
00000200: e8f8 fd3d 00ee 633f eacc a83f 3f95 b53e
00000210: e9ac 483e 2470 913e a891 a83f d6fe 7b3f
00000220: 8c5b 083f bf18 ab3f e77e e2be 130f 903e
00000230: df5a df3f 9bab 7b3f d454 0540 a871 7a3f
00000240: dee2 9a3f a0f9 953e adea 5a3f de84 d73d
00000250: a16d 8a3f d282 1ebf a8d6 a23f b154 8f3f
00000260: ca95 813f 5fd2 1b3e afef 423f 1565 7c3f
00000270: bc2a 55bf ad80 b93f aec5 173f 8803 57be
00000280: 2a49 333f 6946 7dbe 6185 b03f b285 ba3e
00000290: 163e 9f3d 38ea 803e 8b9e 9d3f 8d51 793f
000002a0: 3e4e 093f 6cda ae3e 7e67 eabe f3cd 45bf
000002b0: 82fe 7c3f 7711 8c3e e2db ab3f 77b8 6e3f
000002c0: f6f7 863f 62ea 3a3d 43a6 d53e 3883 e93e
000002d0: 1b1e 213f d593 233f ea9c b43f 46ac b63f
000002e0: 4833 823f 65bf 623f 6e8a a03d b2be 153f
000002f0: 420f a2bd 2309 993f db05 b53f 9ac9 323f
00000300: 8201 9f3e 3c9c cd3f f237 de3e fd29 d03f
00000310: d96d 7b3f 6b73 d83e 3342 bf3c a406 b93f
00000320: 6293 0a3f 7b57 6c3f 494a cf3f a7e4 403f
00000330: 96d4 63be 857f a1bd 7bff 0d3f eb2c e03f
00000340: 606c b63e 232c a6be 6844 763f b70d c33f
00000350: 452a 11be 4260 923d 6168 8e3f 7697 e33f
00000360: ece4 963f 728c a13e 1f7f 953f 1090 f53b
00000370: 073c a43f 6d5c 653f 5058 fe3f c023 a33f
00000380: d0f9 27be df2f 5e3f e179 843f 2e48 893f
00000390: f812 46be 0c5f 813f ada3 783e 09a9 7b3f
000003a0: e241 ea3f 7398 7f3f 8872 e53e 40a1 a83f
000003b0: 842a 0f3f e7de 8a3f 4734 083c ec8b bd3f
000003c0: 6761 133f 3d65 c33f 4e25 e53e 7cd1 03bf
000003d0: 2d59 a03f 4304 a83e a607 46bd 3218 c4bd
000003e0: e01f 97be c09b d73f e6b2 e1bc 0487 943f
000003f0: 0268 8f3f f304 a0bd 7beb a23f a6a8 5d3f
-0.18899205 0.54097563 1.2654711 1.0389265 0.6647373 -0.38445854 2.028426 -0.026341727
0.63795984 -0.41126716 1.4127529 1.0054933 1.2366782 0.87916195 0.648758 1.6803861
1.1187481 1.4908011 1.5861667 0.6154772 0.8067647 1.1570481 1.118572 1.0277051
1.3603498 0.8748015 0.361969 0.4659759 0.8309807 -0.5093511 -0.14908455 0.9449959
1.280412 -0.24461314 0.02557784 1.2376821 0.48317322 0.95006174 0.2525 0.11345802
-0.49435416 0.11359914 0.5583138 1.5008426 1.5418535 0.78706455 1.040839 1.0327863
0.7251704 -0.046715505 1.1107134 0.20601894 0.29855308 0.4103652 -0.04247458 0.2998916
0.47465912 1.0553492 1.8396784 1.0415668 0.033792764 0.4352093 0.46013042 0.7592775
0.727912 0.3072262 1.2965223 -0.8093938 0.6259899 0.9401966 -0.709116 0.9892699
1.4464378 0.25351366 -0.545662 1.6857532 0.39190105 -0.18118043 -0.41789377 1.2109197
0.7040715 0.6642903 0.5212602 -0.3942084 0.25566506 0.69780374 0.73151 0.6885153
0.43832523 0.8869476 0.6888868 0.5961352 1.9890349 0.9723156 0.4005531 0.509308
0.038954776 1.2576376 1.1241659 1.5891976 0.56646353 0.1015098 0.8317946 0.9106148
-0.12715031 0.34198874 -0.26100755 1.2458261 1.8608642 0.60251105 0.17452636 1.5658323
0.42705348 0.94769335 0.7526402 0.39744976 -0.6098656 0.6550048 1.412404 0.70725715
1.2961468 1.3871297 0.060256887 0.6348502 1.1766036 0.108275674 1.2930626 0.73146725
0.12400991 0.89035034 1.3187535 0.35465428 0.1959721 0.2840587 1.3169451 0.98435724
0.5326469 1.3366927 -0.44237444 0.281365 1.7449607 0.98308724 2.0833025 0.97829676
1.2100484 0.2929201 0.85514337 0.10523389 1.0814706 -0.61918366 1.2721758 1.1197721
1.0123837 0.15216969 0.7614698 0.9859174 -0.8326833 1.4492394 0.5928601 -0.20997441
0.70033514 -0.2473389 1.3790704 0.36430126 0.07775514 0.25178695 1.2314008 0.9739006
0.53635013 0.34151018 -0.45782083 -0.7726738 0.9882585 0.27357075 1.3426478 0.9325022
1.0544422 0.04563368 0.4172841 0.45607924 0.6293656 0.6389745 1.4110386 1.4271324
1.01719 0.88573295 0.07838903 0.584941 -0.079130664 1.1955913 1.4142412 0.6983887
0.31055838 1.6063304 0.43402058 1.6262814 0.9821449 0.42275557 0.023346996 1.4455152
0.5413114 0.92320985 1.6194545 0.75348896 -0.22249064 -0.078856505 0.5546796 1.7513708
0.3562956 -0.3245555 0.9619813 1.523856 -0.14176281 0.07147266 1.1125604 1.7780597
1.1788611 0.31552464 1.1679419 0.00749398 1.2830819 0.89594156 1.9870701 1.2745285
-0.1640389 0.86791795 1.0349694 1.0725152 -0.19343174 1.0107131 0.24281187 0.983048
1.8301356 0.99841994 0.44813943 1.317421 0.5592425 1.0849274 0.008313245 1.4808326
0.575705 1.526527 0.44755024 -0.5149152 1.2527214 0.3281575 -0.048347138 -0.095749274
-0.29516506 1.6844406 -0.027551126 1.1603703 1.1203616 -0.07813444 1.2728113 0.8658546

weight_hh_l0 f4 [64, 16]
00000000: ca79 3cbe 3823 193e c0d6 053d 2cb3 f33d
00000010: 20a9 c7bd 0ecc 41be 64ce 2e3e 1040 d43c
00000020: 442a d73d 50a0 9bbd ecb7 e23d 02a2 42be
00000030: 2ce4 2cbe 8094 7e3c 2eef 183e d4b1 c53d
00000040: 9e8b 7e3e c4f6 8e3d e09a 1bbd b2c5 403e
00000050: 48c0 b1bd f846 e13d 8cca 803d aaeb 543e
00000060: 563a 38be 80c1 e8bc 403e c4bb d805 b83d
00000070: 007c 7d3a a00d bebd 2088 7dbc 6073 2d3e
00000080: 2826 b9bd 6e86 3c3e 78c7 cb3d 0087 f13c
00000090: e00d 10bd 58b3 76be 88ba 3abd 94b3 bdbd
000000a0: 6821 d9bd 8404 2a3e 7ac9 463e 8abd 7abe
000000b0: c05d 053e f81e 5dbd a099 7a3e 586c 603d
000000c0: 3063 e63c 1efb 123e 34a8 4d3e 5a6d 52be
000000d0: f0ae 693e ee2c 6c3e d088 693d e099 7b3c
000000e0: 5c03 93bd f4bd 92bd 10e6 a13d 9c59 9fbd
000000f0: 707f c73d f094 5ebd c019 f6bb 38c9 2fbd
00000100: a8f9 1ebd f062 11bd 0810 553e 1890 d83d
00000110: b05e fc3c 8eb0 053e 10a4 debd 7481 64be
00000120: beb5 16be 8c4b 123e 52e4 283e 5611 3ebe
00000130: 76cf 3b3e 0042 67bc 204e b9bd 3cfc 1d3e
00000140: 1438 7ebe 00ed d33b 64d2 573e dc3a dabd
00000150: 7264 2f3e 80a6 803c 82dc 5f3e 8e35 28be
00000160: b822 943d 3038 a5bd 780f 603e 44ae ac3d
00000170: ce34 4f3e 0098 cebd bcc8 a2bd aa1d 0abe
00000180: b697 7e3e 7c58 dc3d 68ce 453e a8ad 933d
00000190: 9afa 38be 6086 8bbc e04c d1bd d831 e8bd
000001a0: fc38 48be 94a6 613e 60ee 80bc 0056 0abc
000001b0: 8008 17bb 085e c43d 409c e3bb 9cf1 3a3e
000001c0: 885a 3b3e c023 413c 629b 613e 3c2a 1e3e
000001d0: 801d 71be b049 0c3d 44a1 8bbd 7aaa 3bbe
000001e0: da58 493e 28a0 4d3e d488 193e c0c9 ae3b
000001f0: 4035 5abd fc71 c83d 884f 0d3d 28cd 45be
00000200: 00d3 b9ba b452 0cbe 74a1 f33d 2299 5abe
00000210: 3c18 4a3e 3496 8a3d 9420 e4bd 3428 893d
00000220: f8c8 7fbe 5096 3b3d e4a3 8fbd 0046 423a
00000230: 6844 29bd 3466 ba3d 40f6 b13c dc18 49be
00000240: 84f0 cc3d 906b 053e 407c cc3d ace5 3b3e
00000250: 40e6 733d d067 b03c 4061 c3bd 4c9a 3b3e
00000260: 1cb2 293e 3c86 a93d 840c 7f3e c84c 77be
00000270: f63e 433e 40d3 5c3e a039 523c acd0 0ebe
00000280: 541d 423e 468a 25be 5087 93bc e80f 143d
00000290: 4c43 dfbd c03c 33be 78b6 97bd c44f edbd
000002a0: 90ee 563d 8ed2 4dbe 5024 ec3c 547c 8d3d
000002b0: dae5 1dbe 108f 133d 00ab d7bc 8cdb 6f3e
000002c0: 40ab 823c c837 db3d 8aa9 6fbe 902b 553d
000002d0: a0e3 72bc c089 21bd 2052 4d3c 30a6 373d
000002e0: 3040 d83d 7018 9c3c 70cb d23d dc96 0c3e
000002f0: d633 46be b24a 7f3e 28c5 113e 6c5d 50be
00000300: 2673 03be c0ca 49bc acf5 a13d aa07 19be
00000310: 30dd 8a3d c4c0 933d d28e 0dbe 2ec3 6bbe
00000320: 7468 a1bd c2a0 23be c602 55be 6e32 213e
00000330: 40d6 ca3d a027 0ebd 78a7 ee3d eaf4 5d3e
00000340: c08b 5c3d 9242 5cbe fc61 c2bd 4873 f13d
00000350: 6881 5c3e bca6 74be 1003 9b3c f479 c0bd
00000360: d4d2 9a3d 10d2 52bd 009b 3e3e b01b 29bd
00000370: 6295 39be f086 eabd d0ea 62bd 0010 ce38
00000380: 8020 35bb 0a89 213e 3466 02be 9cdb 303e
00000390: e0af 2d3c 8843 5abd e455 d5bd 603b 423d
000003a0: 047f b23d 8098 34bd 1410 4e3e e829 26be
000003b0: 00cf 83bc b27c 30be 7857 71be 0011 453d
000003c0: b49c 503e 72d9 503e aa4e 7dbe 6853 05bd
000003d0: 6a7f 773e 9c05 8d3d 3cad 1a3e 5241 1ebe
000003e0: 5ae7 4cbe 6a78 50be 68e7 5cbd acd1 17be
000003f0: e03d 323e 0028 1639 1cf3 babd 9ca3 953d
-0.18405834 0.14954841 0.032675505 0.11899409 -0.09749055 -0.18925497 0.1707092 0.025909454
0.105061084 -0.075989366 0.110702366 -0.19007114 -0.16883916 0.015538335 0.1493499 0.09653059
0.24857947 0.069806606 -0.037989497 0.18825415 -0.08679253 0.10999864 0.06288633 0.20793024
-0.17991003 -0.02841258 -0.005988866 0.089854896 0.00096696615 -0.092799425 -0.015474349 0.16938543
-0.09040481 0.18410656 0.09950155 0.029483318 -0.035169482 -0.24091852 -0.045588046 -0.092627674
-0.10602075 0.16603285 0.19412795 -0.24486366 0.13024044 -0.053984612 0.24472666 0.054790825
0.028123468 0.14353606 0.20083696 -0.20549527 0.2282064 0.23064014 0.05701524 0.015356511
-0.07178375 -0.07165137 0.07905209 -0.077807635 0.09741104 -0.054341257 -0.007510394 -0.042916507
-0.03881231 -0.035494745 0.20806897 0.10574359 0.03080687 0.13055632 -0.10871136 -0.22315007
-0.14717767 0.14286631 0.16493347 -0.185613 0.18340859 -0.014114857 -0.09048104 0.15428251
-0.2482608 0.0064674616 0.21076351 -0.10655758 0.1712816 0.015704393 0.21861461 -0.1642668
0.072331846 -0.080673575 0.21880901 0.08431676 0.20234987 -0.100875854 -0.07948443 -0.13487878
0.2486256 0.107590646 0.19317019 0.07210857 -0.18064347 -0.017031848 -0.10219741 -0.11337632
-0.19552988 0.22036201 -0.015738666 -0.008443356 -0.0023045838 0.095882475 -0.0069461167 0.18256229
0.18296254 0.011788309 0.2203193 0.15445799 -0.2354641 0.03424996 -0.06817868 -0.1832675
0.196628 0.20080626 0.14993602 0.005334109 -0.05327344 0.09787366 0.034499675 -0.19316542
-0.0014177263 -0.13703424 0.11896029 -0.21347478 0.19735807 0.0676693 -0.11139026 0.06697121
-0.24979007 0.045797646 -0.070136815 0.00074109435 -0.041325003 0.09101525 0.021723866 -0.1963839
0.10006812 0.13029313 0.09984636 0.18349332 0.059545755 0.021533877 -0.09540033 0.18320578
0.1657185 0.08277556 0.24907118 -0.24150383 0.19066986 0.2156496 0.012831122 -0.1394679
0.189565 -0.16166028 -0.018008858 0.036147982 -0.10901508 -0.17503643 -0.0740785 -0.1158748
0.052473605 -0.20099851 0.028825909 0.06908479 -0.15419713 0.036025107 -0.026326656 0.23423594
0.015950799 0.10703999 -0.23404518 0.052043498 -0.014824778 -0.03943801 0.012531787 0.044836223
0.10559118 0.019054621 0.10292709 0.13729423 -0.19355711 0.24930838 0.14235365 -0.20348138
-0.12836894 -0.012316406 0.07908186 -0.1494433 0.067804694 0.072145015 -0.13824013 -0.23023674
-0.07881251 -0.15979293 -0.20801839 0.15741894 0.09904146 -0.034705758 0.11653036 0.21675459
0.053844213 -0.2150977 -0.09491345 0.11789566 0.2153374 -0.23891729 0.018922359 -0.09398261
0.075597435 -0.051469862 0.18613815 -0.04128617 -0.18123391 -0.114515185 -0.055399716 9.825826e-05
-0.002763778 0.15774933 -0.127343 0.17271274 0.010601014 -0.05328706 -0.10416773 0.047419906
0.087156326 -0.044090748 0.20123321 -0.16226923 -0.016089916 -0.17235067 -0.23568523 0.048111916
0.20372277 0.20395449 -0.24737039 -0.032550246 0.24169698 0.068858355 0.15105146 -0.15454605
-0.20010129 -0.20358434 -0.053931624 -0.14826077 0.17406416 0.00014320016 -0.09128401 0.07306597

bias_ih_l0 f4 [64]
00000000: 7e3f 6b3f 4b67 953f 96c3 7d3f ea6d 833f
00000010: 7906 a33f a9bf b63f ea20 4a3f 9eac 6c3f
00000020: 0fbd 7f3f b84a 8d3f 9042 bf3f 19c5 5b3f
00000030: 412a 8c3f 4ce0 8f3f 6440 743f 00cb 883f
00000040: 889a 7e3e 60a2 28be e0b5 17be 1876 2dbd
00000050: 60da a0bc f8fa 45bd a88a 42bd 40ce b3bd
00000060: 607f 66bc 96f3 643e 081f 58be ba94 6e3e
00000070: 286d ce3d 807e 3abc 5422 f63d 38fd 8d3d
00000080: 89ae 803d f122 cabd d796 e83d c48e 33be
00000090: 35cb ecbd 303e 643e 0e6b 473e 1631 c53c
000000a0: efba 5f3d 791e c2be fa31 933d a677 d6bd
000000b0: 3414 8cbd 782d 773e 42e6 46be 769d 413d
000000c0: 4fc4 863f 54c7 c43f 6adb 9d3f 356f a73f
000000d0: d034 933f d466 b93f 3b80 a23f 66e6 6e3f
000000e0: d009 aa3f a659 a33f 00a4 9b3f 977f 7b3f
000000f0: 60c5 b63f f3f9 aa3f 1196 8d3f c689 b33f
0.91893756 1.1672148 0.99126565 1.0267918 1.273635 1.427724 0.7895647 0.9245089
0.99897856 1.1038427 1.4942188 0.8584762 1.0950395 1.1240325 0.9541075 1.0686951
0.24863636 -0.16468191 -0.14815474 -0.04234895 -0.01963538 -0.048335046 -0.047495514 -0.087795734
-0.0140684545 0.22358546 -0.21105587 0.23298922 0.10079414 -0.011382699 0.12018266 0.06933063
0.0628329 -0.09869946 0.113568954 -0.1753493 -0.11562196 0.22289348 0.19474432 0.024071258
0.054621633 -0.37913874 0.07187267 -0.1047204 -0.06839791 0.24138439 -0.19423774 0.047269307
1.0528659 1.537333 1.2332585 1.3080813 1.1500492 1.4484506 1.2695383 0.9332031
1.3284245 1.2761734 1.2159424 0.9824156 1.4278984 1.3357528 1.1061422 1.402642

bias_hh_l0 f4 [64]
00000000: a3be ad3f 6e6a a83f 6833 b63f c735 853f
00000010: 2118 943f 8b48 af3f b236 8c3f 9b18 773f
00000020: 932d b03f 8cd3 a63f dc31 b83f 9e96 993f
00000030: cbe8 b33f 3aa8 a23f 451b 893f 56fe 973f
00000040: 4246 21be e24b 32be 94cb a1bd e8ff 01be
00000050: b8c3 07bd 7022 45be 840d ed3d a23f 163e
00000060: c8c8 643d 00a8 5039 3027 23bd 3003 583e
00000070: 5c59 eabd ba9d 54be 106c 14be 326e 223e
00000080: e0bb ab3e 8266 82be 3d16 883e 466f 403e
00000090: 0a8c 783e 5a94 dfbd 0704 c23e ac9f 62bc
000000a0: f152 aa3e 75dd 87bc 93d7 963e 256c d7be
000000b0: 0983 a6be 4880 883e 654c 65be 7061 543e
000000c0: e82b 953f 5060 ae3f 47a9 a03f 9872 943f
000000d0: 44c2 c93f 6eb1 be3f 3179 883f 113e a13f
000000e0: 805f af3f 8915 af3f 62f9 cf3f 08d1 a43f
000000f0: 7336 a53f 5e88 773f c681 933f 48d9 873f
1.3573803 1.315748 1.4234438 1.0407037 1.1569864 1.3694013 1.0954192 0.9652192
1.3763908 1.3033309 1.4390216 1.199909 1.4055418 1.2707589 1.0711447 1.1874492
-0.15749457 -0.1741176 -0.079001576 -0.12695277 -0.033145636 -0.19251418 0.115748435 0.14672711
0.055855542 0.0001989901 -0.039832294 0.21094966 -0.11442825 -0.20763293 -0.14494348 0.15862349
0.33541775 -0.25468832 0.26579466 0.18792447 0.2427217 -0.10916968 0.37893698 -0.013832014
0.33266404 -0.016585091 0.29461345 -0.42074695 -0.32521847 0.2666037 -0.22392423 0.20740294
1.1654024 1.3623142 1.2551659 1.1597471 1.576241 1.4897897 1.0661985 1.2597066
1.3701019 1.3678447 1.624798 1.2876291 1.2907242 0.96692455 1.1523979 1.0613184

weight f4 [41, 16]
00000000: a2fb 9e3f 14bc 513f 6f2b 6b3f 2698 ca3f
00000010: 27d6 d53f b4f6 a63f 100a b83f d8a1 9f3f
00000020: 16b1 10bd 33f4 3bbf f777 0bbf bab8 85bf
00000030: 09bf c8bf dc49 7b3f 97c3 6cbf c23d b93f
00000040: 0e96 84bf 34bf 823f d46b 053e b00d c93d
00000050: 65c6 91bf 479b b2bf 1bc4 75bf 145d cbbf
00000060: 5e1d 02bf 08e7 1bbf 9e9e f8be 0101 a43f
00000070: 1d98 953f db18 77bf 618d af3f cb93 48bf
00000080: f9e3 783f 57b6 b73e 9ce9 02c0 d484 ff3d
00000090: 740a a2bf 242f 5cbf d9d3 953f c7dc 87bf
000000a0: 972b e7bf 48b0 32bf 3a1a df3f 76c7 d8bf
000000b0: e45a 1540 5112 e8bf 05ac 8fbf 028e 613f
000000c0: 944b 65be b15b 81be b729 d6bf b33b a8bf
000000d0: 0a8e ca3e 0ce3 693f 76c3 20bf b8f1 903f
000000e0: 6189 efbf 2668 25bf 50b0 e3bf 18e9 883e
000000f0: 2f93 28bf 2f80 42be 37cc 5c3f f7aa b7bf
00000100: a2a3 8bbf 61ca 653f 9f2d 003e 948f 233e
00000110: b3f6 6cbf f2d0 c9bf 79aa 60bf 2a84 c8bf
00000120: e849 14bf c67f 25bf 12e4 14bf 2c2e ad3f
00000130: fce4 a43f 37c1 8abf c5e2 ab3f 002e 6bbf
00000140: e82f d4bf 5daa a53f b4bd ebbf f844 073f
00000150: 4522 a4bf de27 afbf 2985 98bf 2050 0740
00000160: 790e 04c0 0fc9 ddbe 1da6 00c0 ed68 ab3f
00000170: df37 cb3f d0d9 bcbf 86ad 1cbe 4155 d23f
00000180: a648 91bf 73b3 3a3f dc35 dcbe a0e1 17be
00000190: 466d 5fbf bb6a 81bf 704d 3bbf 563b 9ebf
000001a0: 2b1e e1be 3203 0c3d 694b 3bbf 104d 783f
000001b0: 8608 783f c94c 89bf fdff 803f 16a4 27bf
000001c0: 2756 b73f 4dde 81bf 3061 73bf 4763 6abe
000001d0: 4400 14bf 5b37 d43f e9ac e53e e890 aa3e
000001e0: 452c c63f 82a3 2abf 1cea c73f ee9d d13f
000001f0: 8349 0ebf f4c7 933f b681 a63d 9cbd c8bf
00000200: 1dc5 96bf b2fc 373f 7de5 ffbe 6bd3 80be
00000210: 15e5 46bf c81c 9abf 5781 5abf 60bd 8dbf
00000220: b10a 01bf 3d9c cb3d c6c4 48bf c007 5f3f
00000230: be53 8f3f 9917 79bf 5ed4 7d3f 8ce0 3abf
00000240: acd0 283f f89c b13f 628e c5bf 581b 04c0
00000250: c5d3 d4bf b4bc acbf 7a92 e2bf cf46 e13f
00000260: 934e c4bf 52dc dc3f 65a2 013c 981d d53f
00000270: 43b0 cc3f b28f 91bf 4ae6 ee3f a04a c43f
00000280: be51 1cbf 853f 8e3f c1bd 203f 5dcb 913f
00000290: 8098 64bf 9655 8e3f 4de3 67bf de43 cebf
000002a0: 9600 8b3f 2316 e63f 28cd 1dbf 47c2 313e
000002b0: 388b 1840 8c72 70be 8896 1b40 3859 92bf
000002c0: 0aa7 37bf 574f c23f dcdf 3ebf 9a60 c8bf
000002d0: 695d afbd 7b67 77bf d27d c3be 8ff9 29bf
000002e0: 3d97 debf ea82 db3f 42bb ecbe 364b c53e
000002f0: 4951 96be 0c5f 7bbf 04fd d73e afb1 9c3f
00000300: 9971 80be e71e 66bf 002b 4dbf 9d1b f9be
00000310: b999 00bf 3d3c ba3f 6374 8abf 57e1 f63f
00000320: b81e d8bf 4688 533f ce57 a8bf 4003 c83e
00000330: de0d 053f fec2 093f d4be 903f f028 f0bf
00000340: a748 c6bf d3e5 43bf 8ab5 f3bf e5f5 07c0
00000350: 1bd5 99bf 368e 6c3e 50e6 0ebf 2ec6 9bbf
00000360: d834 edbf d7af 0b40 44a7 11c0 c375 b23f
00000370: 8f64 9f3f ce71 7ebf 9d8e 0440 d462 4dbf
00000380: c6e4 70be a7f4 fb3f 78b2 f8bf 938e d2bf
00000390: 166d 3cbf f20e e6bf 10a1 18c0 aadb 97bf
000003a0: 5f3e dabf cd94 e53f 98da 0cc0 846a d93f
000003b0: 21f8 783f 265b dfbf 18c0 7fbf 6c90 ccbf
000003c0: fd94 4b3e 3b2b ba3e 2f26 abbf 5d5b fc3f
000003d0: bda4 d1bf 5d95 9d3f 6b71 36bf 0b0e 1c40
000003e0: 8763 623d b9f8 ce3f c96c 3f3f dc24 17bd
000003f0: e302 ad3f 4b87 f2bf e069 bd3e 5c7f d33f
1.2420542 0.8192761 0.9186315 1.5827682 1.6705979 1.3044038 1.4378071 1.2471266
-0.035325132 -0.73419493 -0.54479927 -1.0446999 -1.5683299 0.98159575 -0.92485946 1.4471972
-1.0358293 1.02146 0.13029414 0.09817064 -1.138867 -1.3953637 -0.9600236 -1.588778
-0.5082606 -0.608994 -0.48558515 1.2812806 1.1687046 -0.965223 1.371502 -0.78350514
0.9722286 0.35881302 -2.0455084 0.12476507 -1.265944 -0.8600943 1.1705276 -1.0614251
-1.8060178 -0.69800234 1.7429879 -1.6935871 2.3336725 -1.813059 -1.1224371 0.8810731
-0.22392112 -0.25265267 -1.673148 -1.3143219 0.39561492 0.9136207 -0.6279825 1.1323767
-1.87138 -0.6461204 -1.7788181 0.26740336 -0.65849584 -0.1899421 0.8624911 -1.4349049
-1.0909312 0.8976193 0.12517403 0.1597274 -0.92563933 -1.576689 -0.8776012 -1.5665333
-0.5792527 -0.6464809 -0.5816051 1.3529716 1.288238 -1.0840214 1.342858 -0.91867065
-1.657712 1.2942616 -1.8417268 0.5283961 -1.2822958 -1.3684042 -1.1915637 2.1142654
-2.0633833 -0.43317458 -2.0101388 1.3391396 1.5876426 -1.4753971 -0.15300569 1.6432267
-1.1350296 0.7293007 -0.4300984 -0.14832163 -0.87276113 -1.0110697 -0.73165035 -1.2361858
-0.4396833 0.034182735 -0.7316194 0.9699259 0.96888006 -1.0726558 1.0078121 -0.6548475
1.4323167 -1.0145966 -0.9507017 -0.22889434 -0.57812905 1.6579393 0.44858482 0.3331368
1.548226 -0.66655743 1.561832 1.6376321 -0.5558092 1.1545396 0.08130209 -1.5682864
-1.1778904 0.7186996 -0.49979773 -0.251613 -0.776933 -1.2040033 -0.85353607 -1.1073418
-0.5040694 0.099419095 -0.7842525 0.871212 1.1197431 -0.9730163 0.9915217 -0.7299888
0.6594341 1.3876028 -1.5434077 -2.064169 -1.6627127 -1.3495088 -1.7700951 1.7599734
-1.5336479 1.7254736 0.007912253 1.6649656 1.5991291 -1.1371977 1.8664029 1.5335274
-0.6106223 1.1113135 0.6278954 1.1390187 -0.89295197 1.1119869 -0.9058121 -1.6114461
1.0859554 1.7975506 -0.6164117 0.17359267 2.3834972 -0.23481196 2.4310627 -1.1433477
-0.71739256 1.5180463 -0.7456033 -1.565448 -0.085627384 -0.96642274 -0.3818193 -0.6639642
-1.7389904 1.7149327 -0.46236616 0.38533944 -0.2935889 -0.98191905 0.42185223 1.2241725
-0.25086668 -0.89890903 -0.8014374 -0.4865388 -0.5023456 1.4549633 -1.0816768 1.9287518
-1.6884375 0.8262981 -1.3151796 0.3906498 0.51974285 0.5381316 1.1308236 -1.8762493
-1.5490922 -0.7652256 -1.9039776 -2.1243832 -1.201816 0.23101124 -0.5582018 -1.2169855
-1.8531752 2.1826074 -2.275834 1.3942188 1.2452563 -0.993924 2.0712044 -0.80228925
-0.2352477 1.9684037 -1.9429464 -1.644976 -0.7360395 -1.7973311 -2.3848305 -1.1863911
-1.7050284 1.7936035 -2.200842 1.6985631 0.97253615 -1.7449691 -0.99902487 -1.5981574
0.19881053 0.36361107 -1.3371028 1.9715382 -1.6378399 1.2311207 -0.7126681 2.438357
0.055270698 1.6169654 0.7477537 -0.036900386 1.3516506 -1.8947538 0.3699484 1.6523242

bias f4 [41]
00000000: 5b9d 1a3f a260 37bf f5f6 bc3e 552c 66bf
00000010: ca02 09bf 1829 33be ba34 0fbf f4c5 263e
00000020: 1d0e d2be 3636 5dbe 62b3 abbd e693 18bf
00000030: 9e17 aabe 5fe2 92be 3987 03bf 46b9 3abf
00000040: 2a86 8cbe 9e1f 30bf e10b 2c3e ebdb 203f
00000050: 78e7 38be 3750 86bd dee2 aa3e a46a 133f
00000060: b5d6 3cbf 1a02 bebe ff4a 1e3f 3550 a93e
00000070: fb1f 243f 91bf 57be c12f 71bf 8b3f 04bf
00000080: 367d 21bf 52b0 c63e 426f 403e 9d17 a3be
00000090: 0dda 0ebf 5b56 803e 2a8f fbbd e8cd 463e
000000a0: 0168 11bf
0.60396355 -0.71631825 0.36907163 -0.89911395 -0.5351988 -0.17496145 -0.5593983 0.1628645
-0.41026393 -0.21602711 -0.08383824 -0.59600675 -0.33221143 -0.28688332 -0.5137821 -0.72938955
-0.2744611 -0.68798244 0.16801406 0.6283557 -0.18057048 -0.065582685 0.3337621 0.57584596
-0.73765117 -0.37110978 0.61833185 0.33069006 0.641113 -0.2106917 -0.9421349 -0.5165946
-0.6308168 0.38806397 0.18792441 -0.31853953 -0.5580147 0.25065884 -0.12283166 0.19414485
-0.5679932
