Word Generator.pth (torch, 37070 bytes, 6 tensors)

weight_ih_l0 f4 [64, 88]
0.74929255 -0.147603 0.93559766 0.7624951 1.0685675 0.6314259 0.6446828 1.1999686
0.93780434 1.2793351 0.52660656 -0.64372534 0.35487074 0.36045885 0.2868297 0.70632327
1.059911 0.3618337 -0.2079249 0.20729099 0.87587243 0.1648842 1.1734974 0.83555657
0.58587986 0.49651045 0.45359305 0.026452266 0.181302 1.3726776 0.22400795 1.0663218
0.7911303 0.7722791 -0.39344454 0.6304917 1.4159237 0.10490253 0.53905743 0.13539606
1.1174037 0.7254748 0.63041574 1.0235947 -0.4519227 -0.010284839 0.27867362 0.69525844
-0.84656495 0.9302513 0.020531854 -0.031330146 1.4838797 0.7632834 -0.004577188 -0.08294517
0.9235818 0.6284694 0.40784445 0.082228504 0.8963143 0.2207469 0.9771439 1.1424736
0.9243918 0.7961319 1.1453575 0.40424055 0.78662163 0.947558 -0.03318593 0.18792234
1.0312523 0.84457344 0.6111111 0.43395755 0.387975 0.43568859 1.1512221 0.63177925
0.8681665 -0.2235752 0.60093844 -0.11457349 0.83221954 0.9178566 0.8831817 0.8260272
0.514788 0.1421492 0.5662739 0.8663549 0.26139447 0.38599232 -0.30386966 -0.19951537
0.11071196 0.12295113 0.26336998 1.0747747 0.24541382 -0.15356378 0.2561186 0.4064104
-0.03195055 -0.13471252 -0.022664934 0.7297127 1.1637025 0.76359445 0.582985 0.7794496
0.41827396 -0.055004865 0.7154288 -0.058512334 0.053775582 -0.067198485 0.06957127 0.86877435
0.7525378 0.5378342 0.13249099 0.0412867 1.035356 0.12455419 0.06049755 0.46071717
0.55819625 0.7766778 0.4054224 0.97198653 0.7905677 0.37413758 -0.008011403 0.63312167
1.2576262 0.9289465 0.7387989 0.9525834 0.25407305 0.77523065 0.51840377 -0.24688748
0.45637262 0.69207656 0.8930508 -0.081221804 1.1138612 0.93741274 0.82297164 0.46038762
1.0562134 0.3211635 0.33170468 -0.07294264 0.6853154 0.24468642 0.90848315 0.92989975
1.1542518 0.5587084 0.13951154 0.9062127 0.91705096 0.7710435 1.0388142 0.6017899
0.47355968 0.1985069 0.8886632 0.90037787 0.49894187 1.203401 -0.6020705 0.47204843
0.76368207 0.89511466 0.442624 0.38177216 0.24932852 0.7466159 0.8699609 1.0435383
0.8263242 0.5087334 1.0740635 1.1019542 0.35002318 1.1932465 0.8926264 0.5838854
0.96063006 1.1344216 -0.08502245 1.4308159 0.35126728 -0.08508355 -0.08812628 0.9605162
0.61838585 0.9356554 0.9208144 0.46310395 1.0876333 0.83803385 0.16591218 -0.3091993
0.3065504 0.81602836 0.9352199 0.42430723 0.20139864 1.037268 1.7810482 0.5475695
0.58519906 0.9086507 0.64647514 0.5836009 1.1876265 0.7013467 0.35843787 0.6591548
-0.41130513 1.112528 0.8949298 0.50492424 0.74949324 0.94299924 0.8488509 0.21778993
0.3703576 0.6624659 0.5914379 0.70616233 0.4751664 0.5859522 1.0177947 0.13994162
0.95229024 1.3334528 0.6148651 1.0201906 1.5799057 0.49293768 0.60909873 1.0937836
0.3817439 0.6689704 1.0747627 1.0714977 1.2184321 0.2277351 0.65092653 0.8839802
00000000: a3d1 3f3f 3e25 17be 5483 6f3f e132 433f
00000010: d2c6 883f 21a5 213f ef09 253f 9298 993f
00000020: f213 703f 41c1 a33f b0cf 063f 2fcb 24bf
00000030: 9eb1 b53e 108e b83e 58db 923e 9ad1 343f
00000040: 2aab 873f 4442 b93e 44ea 54be 1744 543e
00000050: 2d39 603f 67d7 283e 2a35 963f 09e7 553f
00000060: 39fc 153f 9e36 fe3e 593d e83e 6cb2 d83c
00000070: 3ba7 393e e6b3 af3f 5762 653e 3c7d 883f
00000080: 8487 4a3f 15b4 453f 9071 c9be e767 213f
00000090: fd3c b53f 23d7 d63d abff 093f 44a5 0a3e
000000a0: 1607 8f3f b7b8 393f ed62 213f 2705 833f
000000b0: 6a62 e7be be81 28bc 4fae 8e3e 75fc 313f
000000c0: 7bb8 58bf f324 6e3f 6b32 a83c 0a54 00bd
000000d0: c5ef bd3f 8a66 433f 3cfc 95bb 28df a9bd
000000e0: db6f 6c3f 5fe3 203f fdd0 d03e 6b67 a83d
000000f0: db74 653f 7a0b 623e 1a26 7a3f 933c 923f
00000100: f1a4 6c3f 4dcf 4b3f 139b 923f 9ef8 ce3e
00000110: 0960 493f 2993 723f f8ed 07bd b76e 403e
00000120: 1300 843f f735 583f c771 1c3f af2f de3e
00000130: a9a4 c63e 9312 df3e 3f5b 933f 49bc 213f
00000140: 2940 5e3f e6f0 64be 1ad7 193f 82a5 eabd
00000150: 570c 553f a6f8 6a3f 3218 623f 8576 533f
00000160: 25c9 033f 8f8f 113e 54f7 103f 6fc9 5d3f
00000170: 7fd5 853e c9a0 c53e ce94 9bbe c24d 4cbe
00000180: f4bc e23d cdcd fb3d 6ed8 863e 3892 893f
00000190: c34d 7b3e d33f 1dbe fa21 833e 0615 d03e
000001a0: 94de 02bd 14f2 09be d0ab b9bc 74ce 3a3f
000001b0: 34f4 943f ed7a 433f 813e 153f 028a 473f
000001c0: 0128 d63e c84c 61bd 5826 373f a1aa 6fbd
000001d0: c943 5c3d 5c9f 89bd 627b 8e3d ff67 5e3f
000001e0: 51a6 403f 81af 093f b8ab 073e 3e1c 293d
000001f0: 8c86 843f 4416 ff3d 47cc 773d 1fe3 eb3e
00000200: f3e5 0e3f 5bd4 463f 8693 cf3e 1cd4 783f
00000210: a562 4a3f f68e bf3e 4242 03bc 4314 223f
00000220: e5f9 a03f 70cf 6d3f ed21 3d3f 81dc 733f
00000230: dd15 823e 8475 463f 1cb6 043f 12d0 7cbe
00000240: aca9 e93e ee2b 313f fa9e 643f 9e57 a6bd
00000250: 0193 8e3f 48fa 6f3f 45ae 523f edb7 eb3e
00000260: 0032 873f 8b6f a43e 32d5 a93e f362 95bd
00000270: d470 2f3f 148f 7a3e 5a92 683f e90d 6e3f
00000280: 86be 933f 8407 0f3f 1ddc 0e3e 8efd 673f
00000290: dac3 6a3f 1b63 453f ddf7 843f e70e 1a3f
000002a0: 6a76 f23e 6545 4b3e 6e7f 633f 2a7f 663f
000002b0: 4f75 ff3e 0b09 9a3f 4b21 1abf 55b0 f13e
000002c0: ab80 433f 3c26 653f 9d9f e23e a477 c33e
000002d0: fa4f 7f3e 3822 3f3f c2b5 5e3f aa92 853f
000002e0: fc89 533f 5a3c 023f ea7a 893f d60c 8d3f
000002f0: 3d36 b33e 4dbc 983f 2a83 643f 8379 153f
00000300: daeb 753f ba34 913f 4020 aebd fa24 b73f
00000310: 4ed9 b33e 4940 aebd 8d7b b4bd 64e4 753f
00000320: 894e 1e3f 1d87 6f3f 7eba 6b3f f61b ed3e
00000330: 9137 8b3f 6389 563f e2e4 293e 5f4f 9ebe
00000340: 2df4 9c3e 3ce7 503f 926a 6f3f cc3e d93e
00000350: 723b 4e3e 33c5 843f 63f9 e33f 842d 0c3f
00000360: 9bcf 153f 559d 683f 657f 253f de66 153f
00000370: 2504 983f 758b 333f 2b85 b73e 5ebe 283f
00000380: 9696 d2be 5167 8e3f 1f1a 653f b742 013f
00000390: cade 3f3f 6668 713f 4b4e 593f 5304 5f3e
000003a0: 839f bd3e 5d97 293f 7968 173f 0ec7 343f
000003b0: 0349 f33e f700 163f 1947 823f db4c 0f3e
000003c0: 4bc9 733f 95ae aa3f cd67 1d3f 9b95 823f
000003d0: 5a3a ca3f 5462 fc3e e5ed 1b3f 1a01 8c3f
000003e0: f073 c33e a541 2b3f d391 893f d626 893f
000003f0: 95f5 9b3f 6433 693e 1fa3 263f 874c 623f

weight_hh_l0 f4 [64, 16]
-0.0035820901 -0.06657538 0.03052795 -0.04328835 0.017278701 0.032801628 0.10490358 0.19691157
-0.21557766 -0.034502268 0.15573171 -0.1566062 -0.23881134 -0.11434013 -0.0071913004 0.22888806
-0.22994277 0.21050137 0.1687344 -0.015684426 -0.032090664 -0.18616435 0.19494072 -0.2097083
0.24585044 0.036212772 0.069068015 0.2382924 0.17224297 -0.041119963 -0.228235 -0.082547694
0.21539798 0.013223112 -0.16620019 -0.15183076 -0.15270454 -0.12172499 0.20573318 -0.08923927
0.08092022 -0.10200319 -0.17646179 0.12231672 -0.22922382 -0.11402902 -0.22247264 0.10913497
0.08839667 0.04195136 -0.01243192 0.03819552 0.23098949 -0.24416667 -0.057382077 0.08767772
-0.24468535 0.034546196 0.05526668 -0.08184916 -0.08558944 -0.16587928 0.20557559 -0.1363852
0.09070429 0.106867075 0.033468336 -0.2403697 -0.110634774 -0.120880455 -0.07467285 0.16849577
-0.115811616 0.11753127 0.22747964 0.04787749 -0.1397079 -0.20512673 -0.21993959 -0.0065235496
-0.07730639 -0.03187704 -0.0012442172 0.21516109 0.086491466 0.08516398 -0.1145384 -0.096677184
-0.0911096 0.22356853 -0.15492228 -0.051167637 0.13881084 -0.061632127 0.13667417 -0.1588409
0.06329802 0.09581557 0.21139613 -0.01831302 0.14785153 0.049024493 0.07310307 -0.1701836
0.12116721 0.2201375 -0.05852115 -0.06528506 -0.011382997 0.18752015 0.13838488 -0.14755183
-0.12603217 -0.20767221 0.05479315 -0.0003633499 -0.1658909 -0.110817194 -0.05262962 -0.15581909
0.2011815 0.059815347 0.07732794 -0.15845722 -0.00910145 0.06958917 -0.118392795 -0.056976706
-0.09206915 -0.005353391 -0.20446184 0.0049568117 -0.016583443 -0.034316093 0.040867954 -0.08503047
-0.1475471 -0.22103968 -0.16716465 0.12072313 0.073568106 0.16422486 -0.013770759 -0.16753656
0.10121098 0.17406851 -0.18350405 -0.028217077 -0.09698185 0.1299816 0.06069666 0.1909368
-0.13915476 -0.048949957 -0.22396949 0.1890696 -0.027682453 -0.18146399 -0.20879686 -0.21548948
0.22385845 0.21892864 0.102882475 -0.032593578 0.083272725 -0.12174171 -0.17343205 0.088861406
0.08636013 -0.17093608 -0.10893199 -0.0008980036 0.08169708 -0.048254907 -0.24299368 -0.08445686
-0.1866183 -0.074846536 0.11000475 0.17202476 -0.012506723 0.048961997 0.061900973 0.18697023
0.15369844 -0.11495024 -0.06641024 -0.0942848 0.1997512 0.033054024 0.072315395 0.13171333
0.19381863 0.24129292 -0.038110733 -0.021358758 0.24365488 -0.027232915 0.069791526 -0.1586901
0.19197395 -0.15441072 -0.05298823 -0.02354312 0.18463057 0.09633285 0.10632858 0.09970257
0.077280134 0.1886771 -0.04652244 0.20282984 0.14623263 0.12273008 0.056418 -0.0037448108
-0.22125232 -0.24513602 0.10181022 0.07599929 -0.19646305 -0.16457096 -0.09291613 0.014171034
0.07662001 0.2467801 0.16799769 0.17248043 0.08648962 -0.04401484 0.12578863 -0.09615672
0.1443136 0.051772535 0.009931743 0.2435233 -0.24964386 -0.13329145 -0.10776055 0.11554307
-0.102638274 -0.13850614 0.15677303 0.20872933 0.03320968 -0.072972804 -0.22362664 -0.047861516
-0.046635717 -0.058199733 0.024020106 -0.20680726 0.11333117 0.18530941 0.05260527 -0.130315
00000000: 80c1 6abb ac58 88bd c015 fa3c 204f 31bd
00000010: 108c 8d3c 005b 063d b0d7 d63d 30a3 493e
00000020: 64c0 5cbe 4052 0dbd 2278 1f3e 605d 20be
00000030: f68a 74be 282b eabd 00a5 ebbb a261 6a3e
00000040: 1e76 6bbe ac8d 573e b6c8 2c3e a07c 80bc
00000050: 8071 03bd dea1 3ebe 8a9e 473e c6bd 56be
00000060: 38c0 7b3e d853 143d 8873 8d3d ec02 743e
00000070: 7660 303e 686d 28bd 70b6 69be c40e a9bd
00000080: 4a91 5c3e c0a5 583c 6230 2abe 8679 1bbe
00000090: 945e 1cbe f44a f9bd b8ab 523e 14c3 b6bd
000000a0: 80b9 a53d 0ce7 d0bd 66b2 34be 3081 fa3d
000000b0: a6b9 6abe 0c88 e9bd decf 63be 2882 df3d
000000c0: 5009 b53d 30d5 2b3d 40af 4bbc e872 1c3d
000000d0: 8288 6c3e d406 7abe 7809 6bbd 6090 b33d
000000e0: cc8e 7abe 5080 0d3d 505f 623d 88a0 a7bd
000000f0: 8449 afbd 42dc 29be 6882 523e 90a8 0bbe
00000100: 2cc3 b93d 20dd da3d 1816 093d 7a23 76be
00000110: 7c94 e2bd 2c90 f7bd 14ee 98bd 288a 2c3e
00000120: a42e edbd 3cb4 f03d 6cf0 683e 301b 443d
00000130: 960f 0fbe be0c 52be d837 61be 80c3 d5bb
00000140: d052 9ebd 8091 02bd 0015 a3ba 3053 5c3e
00000150: 7022 b13d 746a ae3d 1c93 eabd b0fe c5bd
00000160: ac97 babd 26ef 643e f2a3 1ebe 2895 51bd
00000170: 6e24 0e3e f871 7cbd 50f4 0b3e 30a7 22be
00000180: 64a2 813d f43a c43d 3a78 583e 3005 96bc
00000190: 6466 173e e8cd 483d 10b7 953d 9c44 2ebe
000001a0: 8426 f83d ba6b 613e e0b3 6fbd 2cb4 85bd
000001b0: c07f 3abc 4805 403e c4b4 0d3e d417 17be
000001c0: 940e 01be 06a8 54be c86e 603d 0080 beb9
000001d0: 4edf 29be 20f4 e2bd 2892 57bd 0a8f 1fbe
000001e0: 8602 4e3e f000 753d 1c5e 9e3d 9c42 22be
000001f0: 401e 15bc c484 8e3d ec77 f2bd 6860 69bd
00000200: c08e bcbd 806b afbb 725e 51be c06c a23b
00000210: 00da 87bc 088f 0cbd 2865 273d 7424 aebd
00000220: 9616 17be 3a58 62be 362d 2bbe b03d f73d
00000230: e0aa 963d 902a 283e c09e 61bc b48e 2bbe
00000240: b447 cf3d 043f 323e 7ce8 3bbe 8027 e7bc
00000250: 6c9e c6bd e619 053e 109d 783d f084 433e
00000260: 967e 0ebe c07f 48bd 4258 65be 769b 413e
00000270: 50c6 e2bc b2d1 39be d8ce 55be 46a9 5cbe
00000280: 263b 653e d42e 603e 0cb4 d23d d880 05bd
00000290: e48a aa3d b853 f9bd 2c98 31be f8fc b53d
000002a0: 94dd b03d de09 2fbe bc17 dfbd 0068 6bba
000002b0: cc50 a73d f0a6 45bd 56d3 78be b8f7 acbd
000002c0: de18 3fbe 2449 99bd 2c4a e13d 4227 303e
000002d0: 00e9 4cbc 608c 483d e08b 7d3d 2075 3f3e
000002e0: 2063 1d3e 086b ebbd 1802 88bd 6418 c1bd
000002f0: 948b 4c3e a863 073d 181a 943d dcdf 063e
00000300: 6478 463e 7e15 773e 001a 1cbd 90f8 aebc
00000310: aa80 793e 9017 dfbc dcee 8e3d a87f 22be
00000320: d294 443e d81d 1ebe 300a 59bd 80dd c0bc
00000330: cc0f 3d3e 284a c53d ccc2 d93d dc30 cc3d
00000340: 0c45 9e3d 9234 413e 508e 3ebd a0b2 4f3e
00000350: 02be 153e e859 fb3d 9016 673d 806b 75bb
00000360: f88f 62be f004 7bbe e081 d03d 84a5 9b3d
00000370: 9c2d 49be 4a85 28be d04a bebd a02d 683c
00000380: f4ea 9c3d ecb3 7c3e 9607 2c3e b69e 303e
00000390: 7821 b13d e848 34bd bcce 003e d0ed c4bd
000003a0: f2c6 133e 700f 543d c0b8 223c 2c5e 793e
000003b0: a4a2 7fbe 8e7d 08be 90b1 dcbd d8a1 ec3d
000003c0: 0434 d2bd 8ed4 0dbe 1c89 203e 24bd 553e
000003d0: e006 083d c472 95bd 62fe 64be 700a 44bd
000003e0: 1805 3fbd d862 6ebd d0c5 c43c 48c5 53be
000003f0: 2c1a e83d c0c1 3d3e a078 573d 4c71 05be

bias_ih_l0 f4 [64]
1.0351154 1.3149605 1.2886921 0.9796316 0.96729994 1.1430434 1.0093217 1.0633347
1.2946944 1.2795562 0.97953284 1.174503 1.2963873 0.9660079 1.2429656 1.0210066
0.02430877 -0.17552763 0.19041109 0.1132223 -0.18135154 0.03887257 0.24126229 0.00088360906
0.03231007 0.21910104 0.14171582 0.0032601953 -0.15060809 -0.08370483 -0.17404953 -0.029651016
0.08902606 -0.049468197 -0.0773372 -0.073340505 -0.08657222 -0.127132 -0.21655926 -0.037330013
-0.15931189 -0.024149487 -0.17189032 -0.06350759 0.096961915 -0.07058097 0.12341141 0.21813965
1.0855523 1.4494748 1.0336893 1.0703306 1.0442758 1.0853684 1.1094484 1.2019439
1.0884106 1.2740659 1.0203246 1.3856975 1.2377671 1.4316254 1.2268622 1.1060624
00000000: a97e 843f a050 a83f ddf3 a43f 23c9 7a3f
00000010: f8a0 773f 3f4f 923f 7431 813f 5a1b 883f
00000020: 8cb8 a53f 7fc8 a33f aac2 7a3f 1d56 963f
00000030: 05f0 a53f 4b4c 773f 7f19 9f3f 58b0 823f
00000040: 3023 c73c 84bd 33be 20fb 423e 18e1 e73d
00000050: 38b4 39be d838 1f3d 760d 773e 00a2 673a
00000060: 9057 043d 065c 603e f41d 113e 00a9 553b
00000070: 0239 1abe 706d abbd 0a3a 32be b0e6 f2bc
00000080: 4c53 b63d 2a9f 4abd f762 9ebd 8c33 96bd
00000090: c74c b1bd e42e 02be b6c1 5dbe 5be7 18bd
000000a0: a822 23be 25d5 c5bc 0404 30be 4410 82bd
000000b0: f893 c63d c18c 90bd 1fbf fc3d 0060 5f3e
000000c0: 61f3 8a3f 6488 b93f ee4f 843f 9800 893f
000000d0: d4aa 853f 5aed 8a3f 6802 8e3f 4cd9 993f
000000e0: 0a51 8b3f 9714 a33f ff99 823f 895e b13f
000000f0: 276f 9e3f 803f b73f d209 9d3f 7493 8d3f

bias_hh_l0 f4 [64]
1.4690751 1.0453544 0.99780726 1.1854969 0.99009204 1.2517905 1.0684562 1.3606393
0.9335856 1.2274624 1.4136128 1.4606085 1.2341789 1.2618088 1.0587586 0.9243516
0.037529886 0.08964953 0.067723334 0.13461143 0.17886558 0.086245924 -0.08911979 -0.082069516
-0.04740709 -0.09693435 -0.21455234 -0.16522652 0.121703595 0.24605519 -0.18246931 0.24066779
0.06359053 -0.0068213893 0.05856106 0.05858527 0.09307843 -0.12387465 0.19273558 0.08566668
0.22540838 0.029992802 0.100366816 -0.06642971 -0.29191113 0.0063534444 -0.18758993 -0.20320055
1.1649355 1.3100109 1.4126574 1.2390378 0.97452635 1.5716497 1.2523509 1.269844
1.0542974 1.3383776 1.3289793 1.3665586 1.4253198 1.4172981 1.3930383 1.3246088
00000000: a70a bc3f 2cce 853f 4c70 7f3f 5dbe 973f
00000010: ac76 7d3f ac3a a03f 2cc3 883f 6e29 ae3f
00000020: 77ff 6e3f 7d1d 9d3f 44f1 b43f 38f5 ba3f
00000030: 93f9 9d3f f382 a13f 6785 873f 4ea2 6c3f
00000040: f0b8 193d 2c9a b73d 88b2 8a3d 94d7 093e
00000050: 8a28 373e b4a1 b03d 7084 b6bd 1014 a8bd
00000060: f02d 42bd 8485 c6bd 9cb3 5bbe 2431 29be
00000070: bc3f f93d e4f5 7b3e 3cd9 3abe 9e71 763e
00000080: c03b 823d f685 dfbb b9dd 6f3d 1cf7 6f3d
00000090: e79f be3d feb1 fdbd 7a5c 453e 0372 af3d
000000a0: 74d1 663e 77b3 f53c 1e8d cd3d 4d0c 88bd
000000b0: 6075 95be 8e30 d03b 9317 40be ce13 50be
000000c0: 9b1c 953f 70ae a73f f5d1 b43f ca98 9e3f
000000d0: 8f7a 793f d12b c93f 094d a03f 408a a23f
000000e0: 38f3 863f f54f ab3f fe1b aa3f 64eb ae3f
000000f0: e170 b63f 066a b53f 144f b23f c88c a93f

weight f4 [88, 16]
-1.5468473 -0.17159374 -1.137893 1.5982682 -1.8277136 1.8021251 1.51902 1.3131508
1.0339901 -1.5494491 1.3013295 1.4390345 -1.5918207 1.5775921 -1.3382425 -1.3703598
-1.1233833 1.7895093 -1.235672 1.5071443 1.6595005 -1.7360034 1.5022345 1.3059182
0.9789969 -1.3719304 1.3428276 1.5193702 1.5305308 1.3966126 -1.1861106 -1.3246284
0.7767069 1.1655982 -0.9947831 0.89809126 -1.1852208 1.2788804 -0.9924172 1.2928569
1.1229079 1.1215025 1.1109786 1.2443048 -0.94270575 -1.5497146 1.1815892 -1.1755201
-1.5174332 1.6036351 1.4201448 1.2534262 -1.2387735 -1.3682648 -1.5725361 -1.2609183
-0.93973273 -1.2196311 -1.7434838 1.5842792 -1.2193594 1.6446581 1.0815526 -1.4025332
1.1136663 0.47495311 0.42027676 1.81511 -1.4616628 -0.7025178 1.731667 1.6762418
-2.0835493 0.53996617 -1.2536958 -1.1422018 -1.0326588 -1.1813259 2.0086198 1.396711
1.2450467 1.4295281 1.1071992 -1.0632588 0.96892905 1.0699154 -1.6936835 1.2503183
-1.34578 1.3664453 -0.92744887 1.0650707 1.2056776 1.3639681 -1.2744546 -1.3318114
1.6292762 1.475717 1.5135351 1.3768312 -1.6156576 1.385134 1.5669138 -1.3651211
1.3687124 0.8454247 1.2214586 1.4314042 2.0654402 1.7766858 1.3482164 -0.9695801
1.7089081 -1.5812062 -0.21105592 -0.8976054 -0.49382046 -1.3949462 -1.5832989 -0.6993438
-1.6031876 -1.8286092 -0.7697972 -1.4887906 -1.4741235 -0.4832856 1.6714932 -1.4631263
1.2359905 1.005394 -0.7979286 1.0467439 -1.174397 1.4983499 -1.1889842 1.222843
1.1065897 0.9684803 0.92338616 1.1575099 -1.3188716 -1.5562129 1.1346134 -1.0703797
1.5593092 1.5509386 1.5428846 -1.4492688 -1.5822736 0.59183615 -1.3586997 -1.3213742
1.4481218 -1.3707805 1.4138246 1.3213996 1.5578218 -1.5247568 -1.2537524 1.3667504
-1.3777395 1.4411563 -1.3985248 -1.5353137 1.5017008 1.9378031 0.9884334 1.7442728
1.6534593 -0.728702 1.5567129 1.4300648 -0.283487 -1.193011 -1.3178698 1.4351114
1.5792854 -1.3055753 1.5622777 1.8222 -1.5183506 1.3378551 1.515733 -1.5665419
0.34126657 -1.3766621 -1.5001731 1.5577486 -1.4093127 1.7226733 1.113359 1.2910829
-1.5961083 1.4784255 1.5607373 1.3835577 -1.198309 -1.2952906 1.4170868 -1.304761
-1.2881509 -1.3896513 1.5814744 1.4609268 -1.2656283 -1.5063896 1.2003254 1.3702909
-1.4404818 2.1948211 -0.62118 -1.0827118 -0.7927996 -1.09138 1.3607303 -0.89175045
0.9356135 -0.9871526 -1.3069295 -0.9550268 -1.1425797 -1.3969003 -1.035557 -1.3553987
-1.2410169 1.5609622 -1.1517892 -1.3941201 1.4493746 1.5749847 -1.4618338 -1.351236
1.3160663 1.4997646 -1.3552058 -1.1825565 -1.161499 -1.0039066 1.3131075 1.3072157
-1.4213059 1.5651767 1.4618318 -1.2048732 1.2380307 -1.3836101 1.2146026 1.2736207
1.2172407 1.5367279 -1.3320192 1.2319618 -1.48359 1.2564074 1.3270092 1.3849932
00000000: 18ff c5bf 45b6 2fbe 7aa6 91bf 0d94 cc3f
00000010: 85f2 e9bf 09ac e63f 3f6f c23f 5315 a83f
00000020: ca59 843f 5954 c6bf f791 a63f 4832 b83f
00000030: c8c0 cbbf 8aee c93f 884b abbf f367 afbf
00000040: 06cb 8fbf a40e e53f 802a 9ebf 1bea c03f
00000050: 836a d43f 5c35 debf 3849 c03f 5428 a73f
00000060: 8a9f 7a3f 6a9b afbf c6e1 ab3f b97a c23f
00000070: 6fe8 c33f 34c4 b23f 79d2 97bf 6c8d a9bf
00000080: 43d6 463f 5232 953f 1baa 7ebf 4fe9 653f
00000090: 51b5 97bf 5ab2 a33f 0e0f 7ebf 567c a53f
000000a0: 72bb 8f3f 658d 8f3f 8c34 8e3f 6145 9f3f
000000b0: 2a55 71bf 0c5d c6bf 513e 973f 7177 96bf
000000c0: 403b c2bf ea43 cd3f 4ec7 b53f 4570 a03f
000000d0: 2190 9ebf 4d23 afbf dd48 c9bf c565 a1bf
000000e0: 5392 70bf df1c 9cbf 7a2a dfbf a9c9 ca3f
000000f0: f813 9cbf 2884 d23f 5170 8a3f 3586 b3bf
00000100: 9e8c 8e3f 0e2d f33e 842e d73e 8655 e83f
00000110: c417 bbbf 35d8 33bf 44a7 dd3f 178f d63f
00000120: df58 05c0 393b 0a3f 1b79 a0bf ab33 92bf
00000130: 2a2e 84bf b035 97bf 3a8d 0040 6dc7 b23f
00000140: b15d 9f3f c7fa b63f b4b8 8d3f dd18 88bf
00000150: bc0b 783f fdf2 883f 9fca d8bf 6e0a a03f
00000160: 8542 acbf aee7 ae3f 4a6d 6dbf 3d54 883f
00000170: a553 9a3f 8296 ae3f 5421 a3bf cc78 aabf
00000180: 1f8c d03f 4be4 bc3f 85bb c13f 013c b03f
00000190: decd cebf 124c b13f a290 c83f 4abc aebf
000001a0: f831 af3f c16d 583f c158 9c3f 4138 b73f
000001b0: 2c30 0440 716a e33f 5b92 ac3f 6736 78bf
000001c0: 80bd da3f f764 cabf 0b1f 58be 78c9 65bf
000001d0: 09d6 fcbe 998d b2bf 8aa9 cabf 3208 33bf
000001e0: 4035 cdbf de0f eabf 6e11 45bf b190 bebf
000001f0: 14b0 bcbf 3671 f7be 7df3 d53f b947 bbbf
00000200: f034 9e3f c0b0 803f 0c45 4cbf b4fb 853f
00000210: a452 96bf eec9 bf3f a230 98bf 1f86 9c3f
00000220: bba4 8d3f 53ee 773f 0963 6c3f 4929 943f
00000230: c9d0 a8bf fc31 c7bf 033b 913f 3402 89bf
00000240: 7297 c73f 2885 c63f 3e7d c53f a481 b9bf
00000250: f187 cabf 9382 173f dfe9 adbf ca22 a9bf
00000260: 0e5c b93f bc75 afbf 34f8 b43f 9f23 a93f
00000270: b466 c73f 3b2b c3bf f57a a0bf adf1 ae3f
00000280: c559 b0bf cf77 b83f dc02 b3bf 2985 c4bf
00000290: bb37 c03f ef09 f83f f909 7d3f 5544 df3f
000002a0: 8ea4 d33f 378c 3abf 5e42 c73f 5d0c b73f
000002b0: 3525 91be 96b4 98bf f5af a8bf bbb1 b73f
000002c0: 0626 ca3f 171d a7bf b7f8 c73f d93d e93f
000002d0: 5059 c2bf d63e ab3f 8a03 c23f 7284 c8bf
000002e0: 7eba ae3e 7736 b0bf ac05 c0bf 4e64 c73f
000002f0: 5c64 b4bf 8f80 dc3f 8c82 8e3f 3442 a53f
00000300: 474d ccbf 0c3d bd3f 3dc6 c73f 6b18 b13f
00000310: 3062 99bf 15cc a5bf 1a63 b53f 6902 a7bf
00000320: 21e2 a4bf 18e0 b1bf c16d ca3f a6ff ba3f
00000330: 1c00 a2bf 60d1 c0bf 43a4 993f b165 af3f
00000340: b561 b8bf f377 0c40 a705 1fbf 4d96 8abf
00000350: eaf4 4abf 57b2 8bbf 692c ae3f c249 64bf
00000360: 5e84 6f3f 08b6 7cbf 7749 a7bf a37c 74bf
00000370: 0d40 92bf a1cd b2bf 228d 84bf b47d adbf
00000380: a4d9 9ebf 9ccd c73f d46d 93bf 8772 b2bf
00000390: 1b85 b93f 1999 c93f 5f1d bbbf 4df5 acbf
000003a0: dc74 a83f 49f8 bf3f 6277 adbf 035e 97bf
000003b0: 00ac 94bf 0380 80bf e813 a83f d852 a73f
000003c0: 5aed b5bf b657 c83f 4e1d bb3f 4939 9abf
000003d0: ca77 9e3f 231a b1bf 1978 9b3f 0106 a33f
000003e0: 8bce 9b3f 80b3 c43f 9b7f aabf edb0 9d3f
000003f0: 47e6 bdbf f5d1 a03f 70db a93f 7547 b13f

bias f4 [88]
-0.8605229 -0.20498602 -0.44671595 -0.45469126 -0.03416222 -0.29894534 -0.2293375 0.63580763
-0.71111435 -0.21616434 -0.37833965 -0.29190204 -0.7037121 -0.5588801 -0.069793075 -0.54025376
-0.23441593 -0.16318914 -0.45403206 -0.47033507 0.21267541 -0.23800233 -1.0969135 -0.3045563
-0.4356572 -0.52792484 0.058877848 -0.119783804 -0.19900204 -0.65698814 -0.4149386 0.6250056
-0.20505807 -1.0068489 0.58221895 -0.3290588 -0.82198334 -0.2485416 -0.49289662 -0.69104886
-0.2389653 -0.153109 -0.8179431 -0.44533706 -0.2690852 -0.6820974 -0.14880371 -0.74794334
0.43000677 -0.43154505 -0.69813246 -0.41375273 -0.13934205 -0.3072734 -0.49566722 0.7780306
-1.300196 -0.81236947 -1.1812266 -0.32231513 -0.887275 -0.55271566 0.26916796 -0.14104128
-0.9723629 -0.5962041 -0.32563767 -0.56379277 -0.4117786 -0.501406 -0.38827762 -0.41983125
-0.45453036 -0.58894277 -0.738994 -0.41846186 -0.3062567 0.15582561 -0.2605348 -0.35990804
-0.25229552 -0.44175652 -0.0024066102 -0.23146836 -0.5990653 0.28374812 -0.26053116 -0.22997266
00000000: 3b4b 5cbf dbe7 51be f4b7 e4be 4bcd e8be
00000010: afed 0bbd 5d0f 99be 73d7 6abe 4ac4 223f
00000020: 970b 36bf 2f5a 5dbe bcb5 c1be 2f74 95be
00000030: 7a26 34bf c412 0fbf acef 8ebd 124e 0abf
00000040: bb0a 70be 0e1b 27be e476 e8be c2cf f0be
00000050: 95c7 593e e2b6 73be a967 8cbf ceee 9bbe
00000060: 760e dfbe 1526 07bf e629 713d 3651 f5bd
00000070: 31c7 4bbe 6030 28bf d572 d4be 5e00 203f
00000080: befa 51be 6de0 80bf 4d0c 153f 657a a8be
00000090: 806d 52bf b081 7ebe f25c fcbe 94e8 30bf
000000a0: 52b3 74be 9bc8 1cbe b864 51bf 3803 e4be
000000b0: 89c5 89be ef9d 2ebf 0060 18be 3779 3fbf
000000c0: d929 dc3e 79f3 dcbe cfb8 32bf 66d7 d3be
000000d0: afaf 0ebe f052 9dbe 18c8 fdbe 032d 473f
000000e0: d36c a6bf 72f7 4fbf 6f32 97bf 7d06 a5be
000000f0: 7424 63bf c67e 0dbf 62d0 893e 206d 10be
00000100: c6ec 78bf d5a0 18bf fbb9 a6be b954 10bf
00000110: a5d4 d2be 255c 00bf 53cc c6be 1ff4 d6be
00000120: 34b8 e8be f4c4 16bf b62e 3dbf a240 d6be
00000130: aecd 9cbe c090 1f3e d164 85be de45 b8be
00000140: e12c 81be e92d e2be 38b8 1dbb 0b06 6dbe
00000150: 585c 19bf 6f47 913e 5764 85be f47d 6bbe
